results/crystal_growth_model.pt (torch, 46850 bytes, 12 tensors)

layers.0.weight f4 [50, 3]
00000000: a7d1 ea3e dc0d f03e 0feb 0bbe 56b2 013f
00000010: 9cee 20be 9445 b73d c5f8 80be b042 b83e
00000020: 6ce8 083f ce98 cfbe 55bb 043f 0b10 063e
00000030: db07 e43e b6e9 c23d a529 9c3e a332 67bd
00000040: d8e9 e93e 187f db3d 5bb8 8dbe 2c3d 043e
00000050: 505e 91be e667 cabd 01f5 7bbe 6fc4 b23e
00000060: b9a7 f4be 905f 8abe 500d 36be 6e6a b5be
00000070: b767 883d 68c2 0ebf 5afc 013f bb40 01bf
00000080: 7752 d83e e9d0 bc3d 0899 51be f101 ad3e
00000090: 5b2e d03d 1c13 e83e fbcd 5a3d e46a 33be
000000a0: 9d94 2b3e 4f9e 0cbe ddd2 773e ec3f fc3e
000000b0: 0228 a03e fb02 7bbe d0ac b53e a1ea f33d
000000c0: 39d8 8b3e 6dc5 c1be c259 1abf 0f4f 78be
000000d0: 4d44 eebe 71c2 e43e 1e81 313e e6b0 7d3e
000000e0: cb48 543e 9fde 0a3b e7b6 ef3e 0030 c6be
000000f0: 6eba 243d 3e46 bcbe d8a8 473e 0397 41be
00000100: 0592 473e a8f6 b6bd 7cf5 ea3e 2d64 afbe
00000110: c0ec b4be 8f3b acbe baf5 063f 2b61 533e
00000120: 6771 0b3f d358 e9be fd99 10bf b16d e3be
00000130: 0ceb bebe 6194 703e 3ddd 553e 9d39 fb3e
00000140: 7756 97be 36f2 babe 354d a73e 3ea0 4bbe
00000150: 8e41 ab3e aab9 e3bd e1fb a73e c333 e1be
00000160: 42c3 87be 273b 433e 82e3 e13d 8d26 25be
00000170: dca0 a33e 49ab b93e 280c e4be 88c3 aabe
00000180: 5f59 063f 5424 55be 19c1 65be dda9 0dbf
00000190: cabd a0be 56ce 193e 719d d0bd 6009 e0be
000001a0: 38d0 39bc da5d c8be 2e26 ffbe b206 aabe
000001b0: 093c 04bf e3a4 cbbe 1d8b 0a3f 3768 033e
000001c0: ae12 4a3e 418b 02bf 121b b6be d5cf 29be
000001d0: 672a fc3d 4d82 03bf 3f24 86be 9092 b7be
000001e0: 9234 14bc 19b1 50be 9612 09bd b675 c9be
000001f0: 7c3d bdbe bcaf a4be 3573 57be 2a3d ecbe
00000200: 4c37 e83e 51b9 cbbd 1cd2 f83e bb29 2e3e
00000210: 5e06 ecbe c909 d83e 27ce 0dbe a98a 78be
00000220: 4f55 efbe 2a48 15bf 8da4 193e 45da fcbd
00000230: ce36 5b3e 046c e5be 6f0a e83e 48d2 cabe
00000240: a4db a5bd e686 f23d 3aa6 953e 720d f53e
00000250: dc1c 033f ad72 efbe
0.45863077 0.46885574 -0.13663886 0.50662744 -0.15716022 0.08948818 -0.25189796 0.3598838
0.5347965 -0.40546268 0.51848346 0.13092057 0.44537243 0.09517233 0.30500522 -0.056444775
0.4568622 0.107176006 -0.27679715 0.1291396 -0.28392267 -0.09883098 -0.2460518 0.34915492
-0.47784212 -0.27026033 -0.17778516 -0.35432762 0.06660407 -0.5576539 0.5077568 -0.50489396
0.42250416 0.09219534 -0.20468533 0.33790544 0.101650916 0.4532708 0.053419095 -0.17521244
0.1675591 -0.13732265 0.24201532 0.4926752 0.31280524 -0.24512856 0.35483408 0.11909986
0.27313402 -0.37845936 -0.6029321 -0.24248908 -0.46536484 0.44679597 0.1733441 0.24774513
0.20730893 0.0021189821 0.4681923 -0.38708496 0.040216856 -0.3677234 0.19498003 -0.18905263
0.19489296 -0.08933765 0.45890415 -0.34256116 -0.35336876 -0.3363919 0.527187 0.20642535
0.54469913 -0.4557558 -0.5648497 -0.44419625 -0.37288702 0.23494102 0.20885177 0.49067393
-0.29558155 -0.36512917 0.32676092 -0.19885346 0.33448452 -0.11119397 0.32809356 -0.43984804
-0.26516157 0.19065534 0.11029722 -0.16127987 0.31958663 0.36263493 -0.44540524 -0.33352304
0.5248012 -0.2081464 -0.22436942 -0.55337316 -0.31394798 0.15020117 -0.101862796 -0.43757153
-0.011341147 -0.39134103 -0.49833816 -0.33208233 -0.51654106 -0.39774236 0.5411852 0.12832724
0.19733688 -0.50993735 -0.35567528 -0.16583188 0.12312775 -0.513707 -0.2619953 -0.35854006
-0.009045737 -0.20380057 -0.03346499 -0.3934762 -0.3696097 -0.32165325 -0.21040042 -0.46140414
0.45354688 -0.09947456 0.485978 0.17008106 -0.46098608 0.42194965 -0.13848172 -0.24271645
-0.46744773 -0.5831324 0.15004177 -0.12346319 0.21407625 -0.44808972 0.4532046 -0.39613557
-0.08098534 0.11842136 0.29228383 0.4786182 0.5121591 -0.46767178

layers.0.bias f4 [50]
00000000: a92e 1d3e 7b8d 82be bec2 7bbd b680 dfbe
00000010: cad6 063f 12f4 d3be a46d a23e 3ffa 413e
00000020: 96c0 383e 24d0 a3be 3168 083f 962f 0e3e
00000030: 0266 b43d 58b9 04bf 3a10 733e 671e d0bd
00000040: 3557 89be 0f78 ff3e da03 e93d 4074 a7be
00000050: 12b1 9bbe 654c 1fbd b273 a23e aaf8 26be
00000060: df90 b0be 1c4f 35be b309 e6be 098e 4b3e
00000070: 1bca d53e f57c 0ebf efe2 133e d3b2 963e
00000080: 8ca8 e93d d72e 41be c576 963e 3fb1 a53e
00000090: d498 613e fb71 b9bd ed96 15be ba84 a13d
000000a0: dbfa ddbd f804 31be 12fc bc3e c81d 043f
000000b0: 43b7 47bd 6508 0dbe 3464 5ab9 afba cdbc
000000c0: 7775 0c3e bf42 373e
0.1534983 -0.25498566 -0.061465017 -0.43652886 0.5267149 -0.41397148 0.31724274 0.18943118
0.18042216 -0.31994736 0.53283983 0.1388534 0.08808519 -0.5184531 0.23736659 -0.10162049
-0.26824346 0.49896285 0.11377688 -0.3270588 -0.3040853 -0.038891215 0.31728894 -0.16305795
-0.34485528 -0.17705959 -0.44929275 0.19878401 0.41755757 -0.5565942 0.14442037 0.29433307
0.11409101 -0.18865524 0.2938749 0.3236179 0.22030956 -0.09054943 -0.14608355 0.07886644
-0.108388625 -0.17287052 0.36911064 0.5160794 -0.048758756 -0.13772734 -0.00020827429 -0.025113432
0.13716684 0.17896555

layers.2.weight f4 [50, 50]
00000000: cee4 17be ab09 86bd 0631 d33d b4f3 583d
00000010: e882 a1bc 3aad c0bd 0f9e bcbd b0ac ffbd
00000020: 2c3f 6ebc 761f 813d 8489 aa3d 27a6 683d
00000030: db81 19be 623d 9dbd c3f9 2ebd 710a 003e
00000040: 9396 333d 3730 fcbc 733d 163d 25b9 74bd
00000050: 5219 97bd ceb0 d23d cb15 7fbd 9387 28bd
00000060: 60f7 efbd fa31 e63d 43cc c13d f123 0e3d
00000070: 10e4 e0bd b307 02be 15f9 01be 0ebf e53d
00000080: 3ef7 833d 1450 0b3e f886 b83d e20f 8b3d
00000090: daec f03c 421a ccbd bb0b d5bd 4c7c d9bd
000000a0: b760 a43d a270 48bd b46d 8fbc 1357 c9bd
000000b0: 3b84 e5bc 4192 9cbd 5323 d4bd 4032 453d
000000c0: 9bd9 83bd 50ab 8c3d fc48 43bd 1c5e e4bd
000000d0: 0459 64bd 3681 bbbd c17d 18bd c513 28be
000000e0: bc69 bd3d 9826 9bbd 52b3 b23d 2ac4 793d
000000f0: 0144 e93d dfde c7bd 03da bf3d cbcd 9fbd
00000100: e7a3 4c3d ea1f d43d bdc0 62bc 6633 d13c
00000110: 39d5 15bd fe93 13be b880 8a3d 9e22 24be
00000120: 0d13 e33d 4398 9b3d 0654 103e f025 09bd
00000130: da8c 17be ff54 ed3c 1953 b03d 434b 16be
00000140: 299c cebc af0a 6bbd 1f67 823b 8660 90bd
00000150: 1245 c8bc a9fd b3bc 568c f3bd 99f4 d13d
00000160: 6513 f13d 2ebe 56bc 10ec 35bc 5624 61bd
00000170: 5c9a c7bd 9983 0bbe a087 f93c 7583 93bd
00000180: 6730 a7bd cb33 f4bc 4288 54bd f1b8 3fbd
00000190: 6c4a 3eb9 9658 39bd 3008 a8bd 4eb7 c0bd
000001a0: b62d dfbd 74ad b03d 991a 25bd cd86 7a3d
000001b0: 7292 debc 2fae 153c 9d11 163e 1f25 9d3d
000001c0: 3b05 09be 1195 313d 97a8 043e 5ceb b43b
000001d0: a974 d23d 1ce5 2b3e 80e4 e8bc 6836 d53a
000001e0: 3066 c7bd 5218 51bd 6adb 063e bfba 243d
000001f0: 0a72 a5bd e29b e4bd 0f13 05be f146 12be
00000200: a02c cebd 9db0 28bd cfc2 d13d 104d 5f3d
00000210: c5bd b3bd d79e e6bd 6bbb d83d 62de 95bd
00000220: ec96 8a3c a078 6d3d 43f9 83bd 867d 0ebb
00000230: 49bd a0bb a1b4 e7bc 248d 25bd 6084 00be
00000240: 83c4 0dbe 0a0b 8abd 7a44 143e cb0d b4bd
00000250: f4d1 cfbd 16d9 fe3c d6c3 603d 722b ef3d
00000260: 2520 d73d cc02 8e3d 46cb 03be a742 013c
00000270: e498 a43d 71b8 89bb 7044 e8bd ffd9 f43d
00000280: d219 23bd f3c1 82bd 7592 dfbd 6551 67bb
00000290: 479b 9f3d a745 be3c 3145 4f3c d25f d3bd
000002a0: c5f7 eabd 0878 ccbb ba63 f43d dea5 833d
000002b0: b438 95bd 9cfc cfbc f246 f0bd 0a8e a9bd
000002c0: 7f95 c13c 76ef 903d d4c2 043e cfd5 0fbe
000002d0: aa7a e43d b964 bcbd 2b17 8a3d 775d d63d
000002e0: 9412 2f3b 27a7 d63d 3562 1bbe 67a4 98bd
000002f0: 07d1 883d 60aa 61bd 95db 33bd 110f 9bbd
00000300: 8b0b cf3d 345a a33d a6a3 e93c 3a87 c7bd
00000310: e796 b7bd 044b b2bb 02f8 6a3d 8934 50bd
00000320: b3d0 70bc d031 c73d 9efc 0b3d bb53 993c
00000330: e35d a0bc 5731 d9bd de51 07be 1cf1 b4bd
00000340: bee7 c8bd cc0f f13c f489 20bd ab19 6dbd
00000350: 5a3a 253e bc2f 283d ec6f fd3d 4513 2ebd
00000360: 6994 a3bd e578 d23c 77e5 8fbd 1d8d 8ebd
00000370: 21e2 dfbc 34d3 1bbd e963 e8bd 4a15 e23d
00000380: a025 ba3d a5fa 52ba 5520 ce3b ef71 f4bd
00000390: 68e7 22bd bad8 a03c 7d29 8e3d 81c3 10bd
000003a0: 38b6 6dbd 0f14 653d 597c 12be 7f7b 823d
000003b0: da86 bdbd 20e3 ff3b 308b 53bd c8ac cdbb
000003c0: 3bb2 89bd fc84 a33d 3349 09bd 5b3f 053e
000003d0: 3418 1c3e 76ed bbbd 5779 d0bd ef2b fd3d
000003e0: 60b3 053e c467 aabd f1a2 cbbb 5406 0bbe
000003f0: a7eb 12be 5f3e 133c f752 443d b46c fe3b
-0.14833376 -0.06544813 0.10312085 0.05296679 -0.019715741 -0.0940804 -0.09209835 -0.124841094
-0.014541429 0.06304829 0.0832701 0.05679908 -0.14990942 -0.076777235 -0.04271866 0.12503983
0.04384477 -0.03078471 0.036679696 -0.05974688 -0.07377876 0.10287629 -0.062276643 -0.04114492
-0.11717105 0.11240001 0.09462788 0.034702245 -0.109809995 -0.1269825 -0.12692674 0.112180814
0.06443642 0.13604766 0.09010118 0.06790139 0.029409815 -0.09965946 -0.10402628 -0.10619411
0.080262594 -0.04893554 -0.017508365 -0.09831061 -0.028017154 -0.07645083 -0.103583 0.048143625
-0.06437989 0.06868613 -0.047677025 -0.111507624 -0.055748954 -0.091555044 -0.037229303 -0.16413791
0.09248683 -0.075757205 0.08725609 0.060978092 0.11389924 -0.09759306 0.09367754 -0.07802924
0.049960997 0.103576496 -0.013839898 0.025537204 -0.036580298 -0.14411923 0.067628324 -0.1602883
0.11087618 0.07597401 0.14094552 -0.033483446 -0.14799824 0.028971193 0.086095996 -0.14677148
-0.025220947 -0.057383236 0.003979578 -0.070496604 -0.024446998 -0.02197154 -0.11892001 0.102517314
0.11771277 -0.013106866 -0.011103645 -0.054966293 -0.097462386 -0.1362442 0.030460179 -0.07202808
-0.08163529 -0.029809853 -0.051887758 -0.046807233 -0.00018147536 -0.045250498 -0.08204687 -0.094099626
-0.108973905 0.086268336 -0.04030857 0.061163712 -0.02716944 0.009135767 0.14655156 0.07673096
-0.13380902 0.04335505 0.12954937 0.005521221 0.102761574 0.16786617 -0.02842927 0.0016266825
-0.097362876 -0.051048584 0.13169637 0.040217157 -0.08078392 -0.11162545 -0.12995552 -0.14284874
-0.10067105 -0.041184057 0.10242235 0.054516852 -0.0877643 -0.11260765 0.10582622 -0.07317807
0.016917668 0.057976365 -0.06444027 -0.0021742298 -0.004905377 -0.028284373 -0.040417805 -0.12550497
-0.13844495 -0.06740387 0.14479247 -0.08791693 -0.10147467 0.031109374 0.054874264 0.116782084
0.10504178 0.06934127 -0.12870511 0.007889426 0.08036974 -0.0042028953 -0.113411784 0.11955642
-0.039819546 -0.06384649 -0.10916606 -0.0035296318 0.07793289 0.023226572 0.012650774 -0.10321011
-0.114730395 -0.006239895 0.11933084 0.06428121 -0.07286206 -0.025389008 -0.11732282 -0.08279045
0.023630856 0.070769235 0.12964946 -0.14046405 0.11156209 -0.09198899 0.067427 0.10467046
0.0026713954 0.104811005 -0.15174182 -0.07453232 0.06680494 -0.055094123 -0.04391058 -0.07571233
0.101096235 0.07976189 0.028520416 -0.09742589 -0.08964329 -0.0054410715 0.057365425 -0.05083135
-0.014698195 0.09726298 0.03417646 0.018716684 -0.019576019 -0.10605114 -0.13214824 -0.088350505
-0.09809826 0.029426478 -0.039194062 -0.057885807 0.1613554 0.041061148 0.12374863 -0.042498846
-0.07987291 0.025692413 -0.07026189 -0.06960509 -0.027329506 -0.038043216 -0.11347181 0.11039217
0.09089208 -0.0008048213 0.0062904754 -0.119357936 -0.039771467 0.019634593 0.06941507 -0.035342697
-0.058035105 0.055927332 -0.14305247 0.06371211 -0.092542365 0.007809058 -0.05164641 -0.0062767006
-0.06723448 0.07984349 -0.033517074 0.1301245 0.15243608 -0.091761515 -0.10179394 0.12361895
0.13056707 -0.08320573 -0.0062144925 -0.13576633 -0.14347707 0.008987038 0.047930684 0.0077644233

layers.2.bias f4 [50]
00000000: e78d f83d 9c9a 0b3d 420a b7bd af63 a03c
00000010: d143 50bd 4294 9f3c 28cb 423d 2bef 67bd
00000020: 3ae7 623c ba63 bcbd afab a33c 03db 05be
00000030: f294 f63b 762e 1a3e 5226 0d3e 5818 6b3d
00000040: b180 d83d 89c7 1a3e 7cb2 ea3c e0a0 403d
00000050: ccda 5c3c 3cb9 e73d 6d6b 073e 6afa 93bd
00000060: 1e09 033c 9c05 aebd 8cfb 213d 6b63 fbbd
00000070: 9697 2c3d 35d3 ffbc 1659 813d a828 333d
00000080: b39d a9bd 44aa 863d fea7 863d d5c5 d2bd
00000090: be96 083e 126f 083e ac7a 9d3d 9b3a 4fbb
000000a0: 10c8 0d3d 6f97 b2bd 19f0 72bd 2703 613d
000000b0: 4df2 923d 5353 623d bbbc 0cbe d02f d03d
000000c0: f605 47bd 8936 ee3d
0.12136441 0.034082994 -0.089375034 0.019578783 -0.050845925 0.019479875 0.047557026 -0.056624573
0.013849074 -0.09198709 0.019979326 -0.13071828 0.00752508 0.15056786 0.1378415 0.057396263
0.10571421 0.15115179 0.028649561 0.047028422 0.0134799 0.113146275 0.13224573 -0.07225497
0.007997779 -0.08497164 0.039546534 -0.12274822 0.04213675 -0.031228641 0.0631582 0.043739945
-0.08282032 0.06575444 0.06575011 -0.1029164 0.13338754 0.1332362 0.076894134 -0.0031620625
0.034614623 -0.0872029 -0.059311006 0.054934647 0.071751215 0.055255245 -0.1374387 0.101653695
-0.04858967 0.116314955

layers.4.weight f4 [50, 50]
00000000: ea16 f53d 9dde 7e3d 6f76 163e 6a78 613d
00000010: fca3 863d c912 67bd a2b9 cb3d c47b 393d
00000020: 9f3f 9c3d a7b0 50bd c810 e53d e206 e03d
00000030: 4318 efbd a923 163e aee5 c3bd 55b0 d2bd
00000040: 3774 e2bd 82b8 1e3d 44ce d7bd d288 70bd
00000050: b6c6 83bd c31f 453d ea46 0fbe dbf2 c2bd
00000060: eead 733c c11e 59bc 5929 58bd 92b9 333d
00000070: 4ef7 d1bd 4566 dbbd bd84 9ebb 8c28 acbd
00000080: db15 a53d 22f3 fabd 71b2 edbc 70d6 7b3d
00000090: e637 c6bd 59ea e83d 0d86 56bd 2d25 2bbd
000000a0: d641 c0bd e855 7fbd 7758 5ebd cdbc 0abe
000000b0: 1445 083d a088 eb39 8fcb fc3d 450e d43d
000000c0: b028 0c3e 6620 993d 11d4 8d3d 71e4 f53d
000000d0: 3da9 e13d 2f5d abbd 5c82 63bc 9fac 04be
000000e0: 651c 0f3d 47cd 76bd a025 083e 9a7d 243d
000000f0: 0341 20bc 2e27 b0bd a274 c6bd 97a0 ffbb
00000100: 0710 8bbd 06ee 6ebd 5b52 b63d 6f43 95bd
00000110: 74eb 41bd 7374 ed3d dac8 483d 7f70 c1bd
00000120: cb18 2b3d 5015 cd3d 431c 0fbe 9d41 563d
00000130: 4a0a 9b3c 9e0b df3a aa0b 1f3e 5f63 ddbd
00000140: c4af 723d ee82 58bd 6e1d e2bd bf29 f83d
00000150: dbf8 59bd 3945 883b 7ff6 433d 1b94 fdbd
00000160: 9f8e 07be 0440 533d 4154 063e d615 3bbb
00000170: 968e ce3d a6a2 793d ad08 643d ce03 bbbd
00000180: 2c57 1b3e f7f7 5c3d 5974 44ba 3886 893d
00000190: df61 f3bd 2854 183d b535 78bd 6a81 23bd
000001a0: 5352 043d 5d5f 503d 5b89 9b3c 940a dcbd
000001b0: a7ab bbbd 7d36 5dbc fd24 91bc f111 06be
000001c0: a398 0f3e 8402 273d 7858 ccbd 1131 6a3d
000001d0: 4955 873d fed3 8ebd f142 a63d 6e43 bcbd
000001e0: 7faf 7f3d e9eb 023e 60c4 bd3d 6bb5 3e3d
000001f0: 7788 acbc 2c39 403c b722 6e3d 55d7 c93c
00000200: 470e cebc 8395 e43c 93d6 45bd ae2f 95bd
00000210: 4c0f 0cbe 9676 0cbe 9de7 ccbd 8427 0a3e
00000220: 59f4 563d bdb5 febd db8b 7dbd fc8c 063d
00000230: 3929 38bd f94b 36bd 5c46 5cbd 37a3 2dbd
00000240: 6e07 263b 0d0e 2c3c dc1b a63d 7a07 c33d
00000250: 5a36 e63d adde c73b 27cb 7dbd 4662 c9bb
00000260: 049d c7bd 67f8 a33d f787 a23a befb 11bd
00000270: f7ba cebd 85be 6a3d 0957 aa3d 54bb 143e
00000280: 0bcd 65bd e271 673d 3af3 893c df7d edbd
00000290: cfc8 aebd 69bb 993d 009e aebd e303 da3d
000002a0: 3b4b 383d e93c 503d ba05 ae3d 19ce 993d
000002b0: c9df 813d c63b c83d a942 98bd 96f3 65bd
000002c0: 5273 07bd 3869 a83d 02d3 e03d 7b2a c23d
000002d0: 11b7 66bd 7eec 86bc 69f5 bbbd 1625 df3d
000002e0: 43ae a0bd bab9 82bd 2713 b73d d255 043d
000002f0: 6e71 8dbd e836 babd 64e5 b3bd d771 f23d
00000300: 7524 06be f7b3 053e 852f 053e 6b26 133c
00000310: 6a40 a13a 743a d93d e485 673d bb0d f03d
00000320: 0c71 e83d 349a aabd f418 b43d 4332 2a3d
00000330: e0d4 f8bd eaf6 863d 45ed cfbd 0ae8 8dbd
00000340: eadc b5bb fbb6 1cbd c649 f1bc f52a e6bd
00000350: e4d0 683d 29b2 333e b6ed 20bd 2ff0 c3bd
00000360: fada f138 f3e2 00be a223 03be a61d 50bd
00000370: 1027 d33d fb50 cdbd 8805 b7bc c07c d9bd
00000380: 8394 e7bd 7df5 57bd f705 873b 93b3 d3bc
00000390: 117f a13d bb0f 8f3d ff64 d53d 00e9 123d
000003a0: d6d5 f53b 2ab8 403d 15e9 ddbd 0e55 a53d
000003b0: 2906 d03d 087b 6fbd a2ca bb3b 3e98 eabd
000003c0: a1dc 0cbe db5c 22bc 70e3 e53c 02d8 19bd
000003d0: a215 ab3c 6e9e e6bd e6f9 c1bd 7537 da3d
000003e0: 5395 eabd 384b 6b3d 1e9a dd3d 8f43 ed3d
000003f0: 95b5 553d c42c 21be 10f5 1ebb bac9 65bd
0.11967261 0.06222402 0.14693616 0.055046476 0.06574246 -0.0564144 0.09947516 0.045284048
0.07629322 -0.05094972 0.111848414 0.10938813 -0.116745494 0.14662041 -0.09565292 -0.10287539
-0.110573225 0.03875018 -0.10537389 -0.058724232 -0.064343855 0.048125993 -0.13991895 -0.09518977
0.014873011 -0.013251961 -0.052773807 0.043878146 -0.10252248 -0.10712866 -0.004837601 -0.08406171
0.08060809 -0.12253405 -0.029015752 0.0614838 -0.096786305 0.11372823 -0.052373935 -0.0417835
-0.09387557 -0.062337786 -0.054283585 -0.13548584 0.033269003 0.00044924486 0.12343513 0.10354284
0.13687396 0.07476883 0.06925214 0.12006462 0.11018608 -0.08367383 -0.013886061 -0.12956475
0.03493919 -0.06025436 0.13295603 0.040158845 -0.009781125 -0.08601223 -0.09690215 -0.007801126
-0.06790166 -0.058332466 0.08902427 -0.072882526 -0.047343686 0.115944766 0.049019672 -0.09445285
0.04177169 0.10013831 -0.13975625 0.052308667 0.018925805 0.0017017012 0.15531793 -0.10809969
0.059249654 -0.05285924 -0.110407695 0.121173374 -0.053215843 0.0041586426 0.0478425 -0.123817645
-0.13238 0.051574722 0.13118078 -0.002854695 0.1008579 0.06094613 0.055672336 -0.09131585
0.15169972 0.053947415 -0.0007494144 0.06715053 -0.11883902 0.037189633 -0.060598094 -0.03991834
0.032305073 0.050872196 0.018986395 -0.10744205 -0.091635995 -0.013501761 -0.017717833 -0.13092782
0.1402307 0.040773883 -0.099778116 0.0571757 0.06608064 -0.06974028 0.08118237 -0.09192549
0.062423225 0.12785305 0.09265971 0.046559732 -0.021061165 0.011732381 0.058138575 0.024638811
-0.025153292 0.027903324 -0.048300337 -0.07284485 -0.1367771 -0.13717112 -0.10005114 0.13491637
0.05247912 -0.124370076 -0.061900955 0.032849297 -0.044961188 -0.044506047 -0.053778037 -0.042391982
0.0025334018 0.010501397 0.081107825 0.095229104 0.112408355 0.006099543 -0.06196132 -0.0061457483
-0.09746745 0.08006363 0.001240014 -0.03564047 -0.100942545 0.0573106 0.08317382 0.14524585
-0.056103747 0.05650509 0.016839612 -0.11596274 -0.08534395 0.07506449 -0.0852623 0.106452726
0.04499362 0.05083934 0.08497186 0.07510013 0.06341512 0.09777026 -0.074345894 -0.056140505
-0.033068962 0.08223194 0.109777465 0.09480759 -0.05632693 -0.01647019 -0.09177668 0.108957455
-0.07845738 -0.06383081 0.089392 0.032308407 -0.069064006 -0.09092504 -0.08783987 0.118381195
-0.13099845 0.13056932 0.13006409 0.0089813275 0.0012302522 0.10606852 0.056524172 0.11721369
0.11349687 -0.08330193 0.08793822 0.04155184 -0.12149978 0.06590064 -0.101526774 -0.069290236
-0.0055500166 -0.03826044 -0.029454123 -0.11238662 0.05683984 0.17548431 -0.0392892 -0.09567296
0.00011532563 -0.12586574 -0.12806562 -0.050809525 0.10310185 -0.100252114 -0.022341505 -0.10619497
-0.11307623 -0.05272435 0.004120584 -0.025842464 0.07885564 0.06985422 0.10419654 0.035866737
0.007502298 0.047050633 -0.108354725 0.080728635 0.10157425 -0.05846694 0.005730943 -0.11454819
-0.13756038 -0.009909834 0.028062552 -0.037559517 0.020884339 -0.11260687 -0.094714925 0.10655109
-0.114542626 0.05744478 0.10820411 0.115851514 0.052175123 -0.15739733 -0.0024254955 -0.056100585

layers.4.bias f4 [50]
00000000: 441e c73d b761 a63d 6c3d e03d 8bb1 4b3d
00000010: 0e47 f33d c4cb d43d 4bc4 f8bc 3107 cb3c
00000020: 9aa3 b3bd db4b c2bd 7c91 f33d b129 b4bd
00000030: c1fb 90bd f506 18be 2b5a f6bd 462a a33c
00000040: 61b6 5d3d ed88 0bbe 7e06 b83a 0b5f bebd
00000050: 7005 813c 0d46 923d e65f 2dbd a541 93bd
00000060: 404f dc3d c768 d3bd 5f87 2cbd a919 05be
00000070: 7f08 b33d b1a7 513d 387c 7cbd 1edb b13d
00000080: 1393 ee3d 640e 413d beb7 d6bd 90af 94bc
00000090: 7353 ff3d 4417 e93d 8520 0fbd d98b ae3d
000000a0: f0eb d5bd 90be 463d 5a8c 0b3e 2cb6 623c
000000b0: 2630 fdbd 2b02 ff3c a0bb b73d e19a df3d
000000c0: 0f68 ccbd 2ece 1abd
0.097225696 0.081241064 0.10949215 0.049729865 0.11878787 0.10390428 -0.030367037 0.024783703
-0.08771439 -0.094871245 0.11892983 -0.087970145 -0.07079268 -0.14846404 -0.12028917 0.019917618
0.05412901 -0.13626452 0.0014040021 -0.09295472 0.015749663 0.071422674 -0.042327784 -0.07190255
0.10757303 -0.10322719 -0.042121287 -0.1299807 0.08741855 0.051185314 -0.0616419 0.086843714
0.11649146 0.047132865 -0.10484265 -0.018150121 0.124670886 0.11381391 -0.034943122 0.085227676
-0.10445392 0.04852158 0.13627759 0.0138373785 -0.12362699 0.031128963 0.089713335 0.10918213
-0.09980785 -0.037794285

layers.6.weight f4 [50, 50]
00000000: c515 b3ba f1a8 17bc 30d8 49bc 3476 42bd
00000010: d2d1 9e3d cacb a03d 2c84 72bc b8c4 ff3d
00000020: 2b8f 61bb 45d8 f63c f628 1b3d 785e 29bd
00000030: 6992 e5bb cb6b 02bd 97cf 613d d26e aabd
00000040: 7dfa 7bbd 5515 05be c72a 7dbd ff3f 6e3d
00000050: 04cf e73d ed8a 20be 64b1 97bd 4cc9 ab3d
00000060: 136e 55bd 513c ac3d bed0 433c d112 14be
00000070: 240c 293d ab47 7fbd 91b5 c43c ab79 fdbd
00000080: bdf7 0c3e 6dd3 afbd d7d0 af3d 8b5e b1bd
00000090: f9a3 f1bd cced 943d b929 b43d a8dd a03c
000000a0: 458d fdbd fcdd 52bd d418 aebd f658 d03c
000000b0: 3546 3e3d 9c8c c53d 987e 223e ef86 59bd
000000c0: ee13 c73d 24df cd3d d078 1f3d 4d00 f8bd
000000d0: 17ec 98bd 43dc 9b3d 72f0 0c3e 9a41 b33d
000000e0: 8fae f53c b944 88bd 1c8c fabd e5b6 a1bd
000000f0: 6724 35bb ab3b eb3c d760 e63d 9f82 f7bd
00000100: 8486 a43d b222 ee3d 6cd3 07be dc77 8dbd
00000110: 073a 64bd ccfa 293d 4bcd 073e 504b b33b
00000120: c019 8b3d 0278 e13d 4521 173e 07ff 0fbe
00000130: febc bcbd 9ae2 b1bc 801a 993c c00d 2d3d
00000140: 7a3c f43d 998e fd3d 6912 2cbd 5b22 c0bd
00000150: 6aef 123c 08d9 df3c a18e ae3d 2afc 8f3d
00000160: 619e 3c3d 52b8 903d fc71 d23d de8d 923d
00000170: a4d2 9f3a 5061 ecbd 87c1 033e 6066 34bb
00000180: c813 a6bd 57da 1abc 19d0 b33d d918 97bd
00000190: 7c13 46bc f195 763d 2d9a ec3d f5c7 d8bc
000001a0: c03b a9bd fb1a 42bd a6dc 06bd 4148 db3c
000001b0: 8897 d5bd fbf6 ec3d 70fa 3c3d 6679 c0bd
000001c0: 6633 913d 99ad c2bb 6fec 093e 6b8d 4cbc
000001d0: 46d9 a33b 1614 01be af2d d7bd 344e 5a3c
000001e0: 3091 f73d b174 d9bd 2ae4 3e3c 580d d1bd
000001f0: 3ada c9bd 2dd3 82bd d690 b1bd d576 04be
00000200: fd91 f2bc a428 7b3b 3096 6c3d 50a5 8f3d
00000210: 370d f13b e0f5 64bd 3fb4 1fbd b936 f5bd
00000220: 6168 d13d 68eb 0f3e 519e 00be f241 f4bd
00000230: 9de4 0dbe 6515 1fbd 4597 3e3c 9b71 d8bd
00000240: 36c0 bc3d 5f9a ff3a 1e44 68bd 9402 ffbd
00000250: 175e c63d 2fd9 193e e5d4 953c 9f48 5abd
00000260: 1763 da3d e208 b03d a6d5 8d3b 7127 133e
00000270: 20e8 bcbd bf21 fbba 956f ed3d 3f99 c0bd
00000280: 0c5a 20bd 89d0 55bd 563e 75bd 298a e13d
00000290: 52b7 b53d 4621 0bbe 7a7c a8bd 20e1 a63b
000002a0: 55ba 26bd 61c8 84bd 1f21 0cbe e228 ab3d
000002b0: 7d61 723d 1208 183d 5fed d9bb dcfa 17be
000002c0: 2b13 97ba 7001 2f3d b2aa c7bc cc37 0b3e
000002d0: 3a7e ea3c 5dba 7abb 888f 7e3d d532 473d
000002e0: 81e9 debd 59fb 323d 67bf 03be 92dd 67bc
000002f0: 9bc9 33bd 92c0 023e c933 0fbe 979d 0f3d
00000300: 6c61 efbd ae17 433d 67dd 5b3d 563d 6ebd
00000310: c919 6e3d 5814 173e 3ed8 923d ad6f fcbd
00000320: 5d1a eebc c908 0f3e 3657 243d d803 4f3c
00000330: 11ab 073d c140 12bd aa08 b9bc e749 e23c
00000340: 65ef ca3d e14f 38bd b299 f4bc 45bd 2b3d
00000350: ad0a 64bd 2b8e db3d 34b0 d73d 48eb b3bb
00000360: 63b1 b0bd b616 503d 6e5f 013e edd0 803d
00000370: 89b4 683d 58d8 cbbd ebc7 1fbe f6ba 73bd
00000380: bcff ac3c a1f3 e03d 4975 113d a022 25bd
00000390: 7c92 b6bc 5df2 8039 0826 babd f9af 65bd
000003a0: f0d7 0c3d 5646 853d 539b e33d bc84 5d3d
000003b0: fcc3 c2bd 1513 173e cb73 103e 5ef2 cdbc
000003c0: b602 84ba f88b ea3d b92e 0bbd 8b18 4b3d
000003d0: f2c1 323d 8bb1 923d f34b 893d b0b8 1f3e
000003e0: a612 d23d 6afb b5bd 6589 a73d 1a12 85bc
000003f0: 7954 7fbd e441 433c 8749 debb 0a74 a3bd
-0.0013663104 -0.009256587 -0.0123196095 -0.04747601 0.07754864 0.0785137 -0.01480202 0.12488693
-0.003441761 0.030132422 0.03788086 -0.041349858 -0.007005979 -0.03184108 0.055129614 -0.083219185
-0.06151818 -0.12996419 -0.061808374 0.0581665 0.11318782 -0.15677996 -0.074068815 0.08388004
-0.052106928 0.08409942 0.0119516235 -0.14460303 0.041271344 -0.062324207 0.024012359 -0.12376722
0.1376638 -0.08585248 0.08584755 -0.08660611 -0.117988534 0.07271919 0.087970205 0.019636944
-0.12380461 -0.051481232 -0.08500829 0.025433045 0.046453673 0.0964596 0.15868604 -0.0531072
0.09720598 0.10052326 0.038933575 -0.12109432 -0.074669056 0.07610371 0.13763598 0.08752747
0.029990463 -0.06653733 -0.12233755 -0.078962125 -0.0027640106 0.028714975 0.112489395 -0.12085461
0.08033469 0.11627711 -0.13264245 -0.06907627 -0.0557194 0.041498944 0.13261907 0.0054716244
0.06792021 0.11009218 0.14758785 -0.14062129 -0.09215735 -0.021714497 0.018689394 0.04224944
0.119255975 0.12380714 -0.042009745 -0.09381553 0.008968214 0.027325168 0.08523298 0.07030518
0.04604948 0.07066406 0.10275647 0.07155965 0.0012193513 -0.115419984 0.12866794 -0.002752684
-0.08109242 -0.00945147 0.08779926 -0.07377786 -0.012089606 0.06020159 0.11552844 -0.026462534
-0.082633495 -0.04738901 -0.03292527 0.026767852 -0.10429293 0.11570545 0.046137273 -0.09398155
0.070898816 -0.0059411046 0.13469099 -0.012484889 0.0050002662 -0.12605318 -0.1050676 0.013324309
0.12088239 -0.1061796 0.011651078 -0.10207623 -0.098560765 -0.06387935 -0.086702034 -0.12935956
-0.029610628 0.0038323784 0.057760417 0.07013953 0.0073563117 -0.055898547 -0.038990255 -0.11973328
0.10224987 0.14054644 -0.12560393 -0.119266406 -0.1385674 -0.038838763 0.011632745 -0.105685435
0.09216349 0.0019500962 -0.056705587 -0.124516636 0.09685915 0.15024255 0.018289993 -0.053291913
0.10663431 0.08595444 0.0043284474 0.14370514 -0.09223962 -0.0019159837 0.11593548 -0.094042294
-0.039148375 -0.052200828 -0.0598739 0.1101268 0.08872856 -0.13586912 -0.08226867 0.005092755
-0.040705044 -0.06483532 -0.1368451 0.08357407 0.059175003 0.03711707 -0.0066506113 -0.14841789
-0.0011526098 0.04272598 -0.024373386 0.13595504 0.028624643 -0.0038258054 0.0621486 0.04863246
-0.10884381 0.043696735 -0.12865983 -0.014151948 -0.043893438 0.12768772 -0.13984598 0.0350624
-0.116885036 0.047630005 0.053677943 -0.058163963 0.05813006 0.14753854 0.07170151 -0.12325988
-0.029065305 0.13968195 0.040122233 0.012635194 0.033122126 -0.035706285 -0.02258714 0.02762313
0.09908942 -0.044998053 -0.029858444 0.04192855 -0.055674244 0.10720476 0.10531655 -0.005490694
-0.08627584 0.05080291 0.1263406 0.062898494 0.056812797 -0.09953374 -0.15603606 -0.05950447
0.021118037 0.109839685 0.035512242 -0.040316224 -0.022286646 0.00024594637 -0.09089285 -0.056076024
0.03438562 0.06507556 0.1111361 0.054081663 -0.09510037 0.14753373 0.14106672 -0.025139984
-0.0010071609 0.11452478 -0.033980105 0.049583953 0.043641992 0.0716277 0.06703939 0.15597796
0.10257463 -0.08885844 0.08180503 -0.016243983 -0.06233642 0.011917565 -0.0067836675 -0.07981117

layers.6.bias f4 [50]
00000000: 2875 3dbc 4563 ea3c 9f34 f6bd a28f 533d
00000010: a856 67bd c1f4 c1bd 8c62 35bd a274 edbd
00000020: 0f66 f6bd 493f e73d b4a9 d23d c97b bdbd
00000030: 76e1 283d ef28 75bd d288 143e 28f8 c93d
00000040: b714 8a3d d47e 02be ca5d 70bd 3cfb 2abd
00000050: 8089 0ebe cfd0 92bd b887 4c3d 1db8 02be
00000060: 7f64 4c3d e7d5 e23b 7804 b6bb 1b71 59bd
00000070: c549 b2bd c891 14be 66df aabd 10fc f43d
00000080: ab24 d73a bf4b 033e 0293 9d3c 7a12 8cbb
00000090: d6b2 c33d fafa 0fbe 5016 ccbd 1d43 c33d
000000a0: 75ee cabc 54e4 cf3d ba52 7ebb 1006 e23d
000000b0: cf60 a53c e05a 343b 2a21 05be 1736 14bd
000000c0: 7ac6 9b3c 3e50 9f3d
-0.011563577 0.028611789 -0.120217554 0.05165065 -0.056479126 -0.09470511 -0.044283435 -0.115945116
-0.12031185 0.112913676 0.102862746 -0.09252126 0.04123064 -0.05985349 0.14505318 0.09861785
0.06742232 -0.12743694 -0.058683194 -0.041743502 -0.1391964 -0.07168733 0.04993412 -0.12765546
0.049900528 0.006922472 -0.005554732 -0.05308638 -0.08705477 -0.14508736 -0.08343391 0.119621396
0.0016414126 0.12821864 0.019235138 -0.0042746635 0.095555946 -0.14060584 -0.09965193 0.09534285
-0.024771908 0.10150972 -0.0038806633 0.110363126 0.020187763 0.0027519986 -0.13000932 -0.036184397
0.01901554 0.07778977

layers.8.weight f4 [50, 50]
00000000: 1504 563c a6c1 7fbd c9c4 a03c 228a f43d
00000010: 027d cf3d a940 7e3d 1bb8 ecbd 3d40 61bd
00000020: a61b cc3d 1478 003e a37f 90bd 76c6 a03d
00000030: 6bb5 ebbc 8fa3 c83d b021 debc 8f27 fcbd
00000040: a78a 1bbe d4a4 f13b 9af7 763d 1355 a0bd
00000050: 73cc f53d e6df 7e3d db4d 9d3d f9d7 973d
00000060: a9a1 18be 2b37 eeba 10d6 a33d 61f8 a83d
00000070: 6d94 f6bd 88fa 8cbd b015 db3d 9f49 06be
00000080: 7867 ed3d 4150 20bd 9b8f 833c bad7 973d
00000090: e8ad d53c 270f 9ebd 4eea 753d 0881 19be
000000a0: 0a61 afbd 6fda d5bc ee5a b0bc c961 c03d
000000b0: 843f 6dbd bf4c 023e 965f 973d d3f6 323d
000000c0: 6796 bd3d 0010 dabd 1f6f 0cbe 14a3 b5bc
000000d0: b51d bd3d 19bb 893d 5038 533c cfd2 193e
000000e0: c9e0 183d 9397 4c3d c11d 70bd 6df4 233d
000000f0: b5e4 66bd 306a c2bd 4cc2 b6bd f6af 9dbd
00000100: 7c90 e5bc f89a 8fbd 952e f23d 6f30 933d
00000110: 5dce cbbd 6359 3c3c 461e 063e ab3d 36bc
00000120: 031d 6b3c 759c 433d ffac 76bd 7cd1 9cbd
00000130: aae1 33bd 8ef1 cabc b240 f63d 3cd5 d3bd
00000140: dbe4 be3c f7e2 8abd 2341 d3bb d530 d2bc
00000150: 5101 53bd 3b3c 1b3d 8d7a b53c f4a7 86bd
00000160: 2eba d63d ac20 cd3d 7491 93bd 695c ed3c
00000170: ebfb 53bd d3f6 ac3d 31e8 dc3b 8f39 f0bd
00000180: f5c1 293d 224d e83d fce2 0bbc e347 3dbd
00000190: 8677 bc3b bd5f d63d f520 cc3d ae0e 0cbd
000001a0: 4818 893d f7c8 873d 9621 093e 3018 da3d
000001b0: 92c9 ffbd fa8e e8bd 31a3 dfbd 76d1 983d
000001c0: 2736 9cbd 9e9d 893d b6a2 6abc 299a 46bd
000001d0: d47c eb3d 240e 1dbd 9c00 b9bd abb6 e0bc
000001e0: e137 ccbd d5a5 07be ed32 91bc 81a7 7dbc
000001f0: 0a69 8fbd 4f67 f33d cc22 09bd 395b 37bd
00000200: 7742 d43d aa7a cb3b b9f2 2bbd 159f 2f3d
00000210: b4a6 0bbe 075a 1b3e 000b 133d ab9e 273d
00000220: 0428 c5bd 7993 c23d 4df9 04be 2ad4 dbbc
00000230: ba40 a6bd 43cf 8ebd 4830 f53c 7d8b 03be
00000240: 6468 1abe cecf c83c a0cf 1c3d a067 62bb
00000250: 7c35 58bd 58b3 fdbc ffba 0ebd 121d 75bd
00000260: ca29 88bd 4da5 d33d d427 143d 08df a3bd
00000270: af7a 2cbd 34ac eabd 16d4 94bd d794 d53d
00000280: aa38 203d af23 a63d cbd1 5cbc 4f08 d9bc
00000290: 59fa 3a3c 4686 e4bd 1f7f 1cbe c3d6 e63d
000002a0: 43e2 ad3c 4ac1 bb3d 9609 ed3d 7b48 643d
000002b0: a3a1 6abd f16c 87bc aa5b aabc 2abd d23c
000002c0: a1f1 333c ea02 c9bd 11af 8cbd 26f9 ea3d
000002d0: e802 113c a8e4 9fbd 4a9d d63d 9b42 5fbd
000002e0: 2707 5fbd 4d1a d63d 1b5a fcbd a596 5bbd
000002f0: 426f fc3d 145a 31bd 0e1c 94bd 360b f13d
00000300: cc80 b53c cf52 12be ca41 b2bd 6604 dabc
00000310: 1cf7 5b3a ff06 dfbd dd55 7fbd 4ec9 193d
00000320: 7cff 18be 7808 2abe ea61 693d a579 cd3c
00000330: 1d2d 06be dea1 eebd b05f d03d 813c 033e
00000340: c54e 57bd 5f17 0f3e 2936 c73d 3144 173e
00000350: 0259 65bd 3f80 e7bc 2094 a03d e13d 2a3d
00000360: 7563 01be ba8a c93d 0dea 223e cd1f afbd
00000370: 17c8 fcbd 8a55 10be 78cc c8bd 52be 59bd
00000380: 8c04 c0bd 3ce9 c4bd 02b3 bf3d 639b 1b3e
00000390: 4529 013e 69b4 cd3d 415e 803d 7ad8 91bd
000003a0: 7aec d7bd 4690 c2bd 68f6 8e3d 1e03 0b3d
000003b0: 2ee3 a93b a849 95bd c968 4ebd 1454 babd
000003c0: dd9b 0bbd 3c21 dbbc b778 a43c bdb9 4bbd
000003d0: aeee 933a 0bee a5bd 0a2b 9d3d 0d43 00be
000003e0: 1a6f 5b3c 7c00 14be ae6f c9bd e827 d43d
000003f0: 381a babb 30b5 ebbc b5ce a33d a0ab dabd
0.013062497 -0.062440537 0.019625084 0.11940409 0.10131265 0.062073383 -0.11558553 -0.054992903
0.09966211 0.12545806 -0.07055595 0.078503534 -0.02877303 0.09796821 -0.027115673 -0.12312233
-0.1518961 0.0073743854 0.060294725 -0.078287266 0.12001886 0.062225245 0.076808654 0.074142404
-0.14905418 -0.00181744 0.079998136 0.082504995 -0.12040029 -0.068837225 0.10697496 -0.13114022
0.11592001 -0.039139036 0.016059687 0.074141935 0.026083902 -0.07717734 0.060037903 -0.14990628
-0.085634306 -0.026105134 -0.021527734 0.09393651 -0.0579219 0.12724589 0.073912784 0.04369242
0.092572026 -0.10647583 -0.13714264 -0.022172488 0.09234182 0.06725139 0.012891844 0.15021823
0.037323747 0.04994924 -0.058622126 0.040028024 -0.056370456 -0.0949291 -0.08923778 -0.076995775
-0.028022997 -0.0701198 0.11825291 0.07186972 -0.0995147 0.011495921 0.13097486 -0.011123101
0.014350179 0.04775663 -0.060223576 -0.076571435 -0.043916382 -0.024773385 0.120240584 -0.103434056
0.023302486 -0.06781571 -0.006446974 -0.02565805 -0.051514927 0.037899237 0.022153163 -0.06575003
0.1048473 0.10015997 -0.07205477 0.028974729 -0.05175392 0.084455155 0.0067415466 -0.117297284
0.041444737 0.11342837 -0.008538004 -0.046211135 0.005751553 0.104674794 0.099672236 -0.034193687
0.066940844 0.06630128 0.13391718 0.10649145 -0.12489618 -0.113553956 -0.10919798 0.074618265
-0.07627516 0.06719516 -0.01432102 -0.048486862 0.114984185 -0.038343564 -0.09033319 -0.027430853
-0.099715956 -0.13246854 -0.017724479 -0.015481831 -0.070024565 0.11884939 -0.03348045 -0.04476473
0.1036424 0.006209691 -0.041979525 0.04287632 -0.13637811 0.15171061 0.035899162 0.040922802
-0.09626773 0.095007844 -0.12985726 -0.026834566 -0.08117814 -0.06973126 0.029930249 -0.1284618
-0.15078884 0.024513151 0.038283944 -0.0034546629 -0.05278538 -0.030969307 -0.034846302 -0.059842177
-0.06648596 0.10334263 0.036170796 -0.08001524 -0.042109188 -0.114586264 -0.07267015 0.104287796
0.03911654 0.08112275 -0.013477753 -0.02649322 0.011412227 -0.11158423 -0.15282868 0.11271431
0.021226054 0.09167726 0.11574094 0.055733185 -0.057283055 -0.01653144 -0.020795662 0.025724966
0.010982902 -0.09815009 -0.06869329 0.114733025 0.008850791 -0.078072846 0.10479219 -0.05450688
-0.05445018 0.10454235 -0.12321874 -0.053610463 0.12325908 -0.043298796 -0.072319135 0.117697164
0.022156142 -0.14289401 -0.087039545 -0.026613425 0.0008391009 -0.10890006 -0.062337745 0.037545495
-0.1494121 -0.16604793 0.056978144 0.025082419 -0.13103147 -0.116519675 0.10174501 0.12816049
-0.052565355 0.13973759 0.09727127 0.14772107 -0.055993088 -0.028259395 0.078407526 0.04156292
-0.12635596 0.09840913 0.15909596 -0.085509874 -0.123428516 -0.1409513 -0.09804624 -0.05316002
-0.09375867 -0.096147984 0.09360315 0.15195994 0.126134 0.10044176 0.062679775 -0.07121368
-0.10543151 -0.09500174 0.06980592 0.03393852 0.0051845526 -0.072894394 -0.0503929 -0.09098068
-0.03408419 -0.026749246 0.020077093 -0.04973768 0.0011286342 -0.08102044 0.07674225 -0.12525578
0.013393188 -0.1445331 -0.09835754 0.10359174 -0.005679395 -0.02877292 0.079984106 -0.10677266

layers.8.bias f4 [50]
00000000: 004b 0bbe 0d1b a5bd 23e8 3f3d 3100 f73b
00000010: 9e95 c9bd 07e1 47bd 2d86 d33d 220e d5bd
00000020: ec09 bf3d 662b ceba 33ac 1abd 0bf4 f9bd
00000030: 99a6 4ebd 1eda d53d 7c09 85bd 4241 fcbd
00000040: cbed c6bc 4bba b43d 2a1c d5bc 56f3 003e
00000050: 669b 193e c5aa ef3d 69a4 8cbd c77c b4bd
00000060: a7a3 f5bd 2cda 95bc e769 a2bd 9c4a a13d
00000070: 228b 5b3b e561 ca3d 5139 13be f731 dabd
00000080: 9e35 1ebd f317 c53c c22f d93d 95f8 c9bc
00000090: 6e03 003e 2c39 51bd d0be 01bd fb43 2abd
000000a0: 38af 55bd f1c7 8bbd ded5 dfbd 5dce f4bc
000000b0: d763 79bd 873e 9dbd a4c4 bbbd 15e5 18be
000000c0: b401 9dbc 9197 03be
-0.13602829 -0.080618 0.046852242 0.0075378646 -0.0984299 -0.048798587 0.103283264 -0.10403086
0.09328064 -0.0015729486 -0.03776188 -0.122047506 -0.05045185 0.10441993 -0.064959496 -0.123171344
-0.02428331 0.08824595 -0.026014406 0.12592825 0.15000686 0.117024936 -0.06867296 -0.08812862
-0.11994105 -0.018292509 -0.079303555 0.07875559 0.0033499678 0.09881953 -0.14377333 -0.10654061
-0.038625352 0.024059271 0.10604812 -0.024654666 0.12501308 -0.051079914 -0.031676114 -0.041568737
-0.052169055 -0.06825245 -0.10929464 -0.029883558 -0.06088623 -0.07677942 -0.091683656 -0.14931138
-0.019165851 -0.12850787

layers.10.weight f4 [4, 50]
00000000: 47c8 043e 8b61 12bd 0aaa 433d b20e cebd
00000010: 444a a63c 48fc 10be ac2c 8e3d 3b02 8a3d
00000020: b07e 0abe 97c7 883d 9311 d03c 7f3a a5bd
00000030: ab52 88bd 4cd4 093e 8823 8fbd b1d8 ff3d
00000040: 286f e63c f58f 783d 12a0 7cbd c24d 283d
00000050: dd97 d23c a901 d43d 754c 10be a27a 45bd
00000060: 0140 423c f634 bfbd 3101 e43c 2258 b73d
00000070: 94f6 9b3d fb95 9bbd 7a5c 733d c808 cebd
00000080: 643f 9d3d dc57 eabd 55f2 0abe 6e10 4a3d
00000090: d2e6 a6bc a5ba 0b3d cb1c f53d de32 143e
000000a0: 75cb 9c3d bab7 fabd ca47 77bc c6e1 783c
000000b0: fe89 08be bf07 ef3d 6ea6 973d b38f 76bd
000000c0: e498 99bc c443 a1bd 78bd 833d 2596 103d
000000d0: 2097 3dbd 7033 a23d 3c0f c3bc b2e2 333c
000000e0: 269b d03d 8204 78bd e07a 0cbe ede9 8d3d
000000f0: e72a a0bd d24a 7f3d 5b12 0fbd c3d9 a23d
00000100: 9faa 01bc 8bca 64bd eece bcbd 7319 ae3d
00000110: fc40 9cbd 7ad1 e33c c046 c63d 69d2 01be
00000120: 50a2 f8bd 45d2 d53c b8ba 20bd 82e4 c0bd
00000130: c9c6 d73d e361 0dbe 4338 96bd ff0e 03be
00000140: 9529 3f3d d697 d63c 7dd6 6c3d cd34 863d
00000150: baaf 80bc e831 2ebd 3c0d e83d ba69 743c
00000160: 6a5e 183d 752d d4bd 426e 16be da6d 80bd
00000170: 74e4 7abd fc47 203d 48c2 5ebd 266f b53c
00000180: cc73 173e 9bdf f7bc 5cd2 4a3d 1e3c 4e3c
00000190: 6c75 ad3d 4891 7f3d f05c 58bc 4ce6 7c3d
000001a0: 6413 c3bc fd61 b2bc ec84 71bd 519e 03be
000001b0: 7c7e f23d 3ce7 b2bd 3c40 08be dfd4 4fbd
000001c0: 73ad 0e3d 1937 06bd a226 843d 89b2 823d
000001d0: cce7 983d b653 d3bd 803c 703d 18a5 a43d
000001e0: 1f55 98bd 73b1 75bb 732b f43c c65d 513c
000001f0: 19c0 9f3d b5a7 c63d 4b35 063e 6b53 2d3d
00000200: f935 b03d 698d 943d 0334 a7bd f5e1 ca3d
00000210: ad15 283c 927b 573d 2c9d bcbd 9e41 d03d
00000220: 6078 ff3c 82a7 293d e8d1 dbbd 0de5 6fbc
00000230: 2ab8 0bbd ed79 043e 1aef 0abe e9e2 46bd
00000240: 2e86 93bd af29 adbd 144e 9a3d ca62 b5bd
00000250: e5ec 803d c912 3e3c c503 b3bd f499 bdbc
00000260: 4275 8f3c 180e 9ebd ec26 e5bd 6236 8cbd
00000270: e9db 953c 521f 0dbe c3f0 c73d 289b c73d
00000280: 9196 023e 8919 de3d 351a b8bd 7c0e 90bd
00000290: f87a e33d e6f0 07bd 3a6e e6bd 154f 58bd
000002a0: 4d34 b23d 9893 83bd c195 833d d99b dcbd
000002b0: 7b53 cc3d e0a3 e53c d765 a93d ec39 8abc
000002c0: 7a63 823d bca5 023e ff8f 80bc 7cfa b4bd
000002d0: 1b99 e5bd ef7b 943d cc50 b2bd 9dee 05be
000002e0: 82d9 d5bd b64d 7bbd 2adc 233d 633d 05be
000002f0: b905 88bd 2145 093e 0b32 28bc ebf9 83bd
00000300: a92b 583d 7893 fdbd 3c6b f3bd 31ae ea3c
00000310: 7f48 363d c04e 1ebe db96 ca3d 6e82 8bbd
0.12967025 -0.035737555 0.047769584 -0.10061397 0.020299084 -0.14158738 0.06942114 0.06738707
-0.1352489 0.06678694 0.025399005 -0.08067798 -0.06656393 0.13459891 -0.06989199 0.124925025
0.028129175 0.060684163 -0.061676092 0.04108978 0.02570718 0.10351879 -0.14091666 -0.048212655
0.01185608 -0.09336273 0.0278326 0.08952357 0.076153904 -0.07596966 0.059414364 -0.10060269
0.076781064 -0.11442539 -0.13569005 0.049332075 -0.020373736 0.034113545 0.119683824 0.1447253
0.07655994 -0.12242074 -0.015092799 0.015190547 -0.1333389 0.11671399 0.07404791 -0.060195636
-0.018749662 -0.078742534 0.06432623 0.03529944 -0.046286702 0.07919967 -0.023810975 0.010979341
0.10185842 -0.060551174 -0.13718748 0.069293834 -0.07820683 0.062327214 -0.034929615 0.07951691
-0.007914214 -0.055857223 -0.09219156 0.08500948 -0.07629582 0.027809847 0.09681463 -0.12677921
-0.12140334 0.02610124 -0.03924057 -0.094185844 0.10535962 -0.13806872 -0.0733495 -0.1279869
0.046670515 0.026195448 0.05782174 0.0655304 -0.015708793 -0.042528063 0.11330649 0.014917785
0.037199415 -0.10360233 -0.14690498 -0.062709525 -0.061253026 0.03913115 -0.0543845 0.022147726
0.14790267 -0.03025799 0.04951702 0.012587575 0.08469662 0.06239441 -0.013205752 0.061743066
-0.023812957 -0.02177524 -0.058964655 -0.12853362 0.11840531 -0.08735511 -0.13305753 -0.05074012
0.034833383 -0.03276739 0.06452681 0.06381709 0.07466087 -0.10318701 0.058651447 0.08039302
-0.074381106 -0.0037489801 0.029805874 0.012778705 0.078003116 0.09699956 0.13106267 0.04231588
0.086040445 0.07253534 -0.08164217 0.09906379 0.010259074 0.05260808 -0.09209666 0.101687655
0.031185329 0.041419514 -0.10733396 -0.014642012 -0.03411118 0.12937136 -0.13567773 -0.048556242
-0.07203327 -0.08455216 0.075344235 -0.08856733 0.06295184 0.011601158 -0.08740953 -0.0231447
0.017511968 -0.07717532 -0.111890644 -0.0684631 0.018293338 -0.13781479 0.097627185 0.097463906
0.12752749 0.10844714 -0.089893736 -0.07034013 0.11107439 -0.033188723 -0.11251493 -0.052809794
0.08701382 -0.06424636 0.06425048 -0.10771913 0.0997686 0.028032243 0.082713775 -0.016873322
0.0636663 0.12758535 -0.015693663 -0.088368386 -0.11210843 0.07250201 -0.08706817 -0.13079305
-0.10441877 -0.061353408 0.040004887 -0.13011698 -0.066417165 0.13405277 -0.010265837 -0.064441524
0.052776013 -0.12381643 -0.11885688 0.028647514 0.04450273 -0.15459728 0.09892055 -0.06811987

layers.10.bias f4 [4]
00000000: fa5e 933c 0df3 b53d 5a94 6e3d 68c8 683d
0.017989624 0.08884249 0.058246948 0.056831747
